TextClassificationOnMobile/models/TFLite/second/model.tflite (tflite, 81035 bytes, 5 tensors)

sequential/dense/BiasAdd/ReadVariableOp/resource f4 [7]
0	0x3ec2d868	0.3805573
1	0x3ddd5ef4	0.108091265
2	0x3eb3150f	0.34977004
3	0x3e818712	0.25298363
4	0xbdc7b575	-0.09751407
5	0x3e44890d	0.19192906
6	0x3def5a3f	0.11687135

sequential/dense_1/BiasAdd/ReadVariableOp/resource f4 [2]
0	0xbf3dccf2	-0.74140847
1	0x3f3dccf7	0.74140877

sequential/embedding/embedding_lookup/18473 f4 [2003, 7]
0	0x3d8f6738	0.07002109
1	0x3d9f9802	0.07792665
2	0xbd92d6d5	-0.07169882
3	0xbda68b8f	-0.081320874
4	0x3c6e8d83	0.014560106
5	0x3e2d8fae	0.1694934
6	0xbdf1560d	-0.11783991
7	0xbbb3d4ba	-0.0054880055
8	0x3e38155f	0.17976902
9	0xbd47a36d	-0.04873984
10	0x3bbe9f39	0.0058173207
11	0x3e681fb7	0.22668348
12	0x3e3c01de	0.18360087
13	0x3cf75825	0.030193398
14	0x3d886287	0.066594176
15	0x3bdde63e	0.006771832
16	0xbddbe1d0	-0.1073643
17	0xbcd85e02	-0.026412014
18	0x3c8cd3bf	0.017190812
19	0x3df84073	0.12121668
20	0xbd233b7a	-0.039851643
21	0xbe701988	-0.2344724
22	0x3e911347	0.2833502
23	0x3e7bc45d	0.24586625
24	0x3e604297	0.21900402
25	0x3e980319	0.29689863
26	0xbe730e53	-0.23735933
27	0x3e68bdbb	0.22728626
28	0xbd1b3a16	-0.037897192
29	0x3d0f21d1	0.03494436
30	0xbd070b70	-0.032969892
31	0x3cb8b582	0.022547487
32	0xbbc68350	-0.006058134
33	0xbcba218d	-0.022721076
34	0x3c6617b4	0.014043737
35	0xbd0d0a36	-0.034433566
36	0xbcc24433	-0.02371416
37	0x3cbce146	0.023056637
38	0x3bda60b0	0.006664358
39	0x3ba58c80	0.0050521493
40	0xbd34e8a7	-0.044167187
41	0x3d1c3957	0.03814062
42	0xbf968bfa	-1.1761467
43	0x3fa732d0	1.3062382
44	0x3f8cec7d	1.100967
45	0x3f983c5e	1.1893423
46	0x3fa1ca11	1.2639791
47	0xbf7fb13a	-0.998798
48	0x3f98a67e	1.1925809
49	0xbdaef2c5	-0.08542398
50	0x3e65972a	0.22420946
51	0x3dd0f724	0.10203388
52	0x3dbb662f	0.09150349
53	0x3e3ca240	0.18421268
54	0xbd663a8a	-0.05620817
55	0x3db8f6c8	0.09031445
56	0xbfbb39d6	-1.4627025
57	0x3fd4a4cd	1.6612793
58	0x3fb261dc	1.3936114
59	0x3fbde32e	1.4834955
60	0x3fc14787	1.5099953
61	0xbf9fae30	-1.2475033
62	0x3fbd2948	1.4778223
63	0xc01878e4	-2.3823786
64	0x401e2457	2.470968
65	0x401c3287	2.440584
66	0x401f7a72	2.4918485
67	0x401d11a7	2.4542024
68	0xc016899a	-2.3521485
69	0x401fcaa6	2.4967437
70	0xbf44a040	-0.7680702
71	0x3f4dee25	0.80441505
72	0x3f52d51b	0.82356423
73	0x3f591141	0.8479195
74	0x3f4a15de	0.78939617
75	0xbf3872e4	-0.7205031
76	0x3f475bcd	0.7787445
77	0xbf86e8d2	-1.0539801
78	0x3f8a09d8	1.0784254
79	0x3f84c7cc	1.0373473
80	0x3f8a744b	1.081674
81	0x3f914638	1.1349554
82	0xbf6ebb52	-0.9325458
83	0x3f8f72af	1.1206874
84	0x3f056a84	0.52115655
85	0xbefd6a49	-0.49495152
86	0xbf108c72	-0.564643
87	0xbf0f0733	-0.5587036
88	0xbef61400	-0.48062134
89	0x3f0e8b6e	0.556815
90	0xbefe0ad8	-0.49617648
91	0xbab08600	-0.001346767
92	0x3b593ba0	0.0033147112
93	0xbce28520	-0.02765137
94	0xbcc8bc67	-0.0245039
95	0xbca9b580	-0.020716429
96	0x3c424834	0.011858035
97	0xbd45c010	-0.04827887
98	0x3e10888e	0.14114591
99	0xbdf97958	-0.121813476
100	0xbe132600	-0.14369965
101	0xbe375dc8	-0.17906868
102	0xbde24fb9	-0.11050362
103	0x3e3355e4	0.17513233
104	0xbe514cbe	-0.20439431
105	0x3d1b5591	0.0379234
106	0xbc2c8028	-0.010528602
107	0xbae89a60	-0.0017746203
108	0xbd0d344a	-0.034473695
109	0x3c7b90dc	0.015354361
110	0x3c07b700	0.008283377
111	0xbad5f460	-0.001632344
112	0xbb99c6b0	-0.004692875
113	0xbd302e4d	-0.043012906
114	0x3c1f5168	0.009723999
115	0xbcbfba0d	-0.023404146
116	0xbc851e26	-0.016249727
117	0xbcfa4b8d	-0.030553604
118	0x3c3b3e0c	0.011428367
119	0x39c83000	0.00038182735
120	0x3b98bae8	0.004660953
121	0x3d338d33	0.04383583
122	0xbcb077ed	-0.02154156
123	0xbd3f5aaa	-0.046717323
124	0x3d17ac41	0.03702951
125	0xbc16f918	-0.009214662
126	0x3d3ad021	0.045608643
127	0xbd08ce96	-0.03340014
128	0xbcf136e0	-0.029445112
129	0x3b6b5bd0	0.0035912879
130	0x3bc13318	0.0058959834
131	0x3c3869cc	0.011255693
132	0x3c7715b4	0.015080858
133	0xbf6434dc	-0.89143157
134	0x3f7e5ed5	0.9936345
135	0x3f620315	0.8828595
136	0x3f79a367	0.9751496
137	0x3f78dcde	0.97212017
138	0xbf48cfe1	-0.784422
139	0x3f681e4b	0.90671223
140	0xbfa88243	-1.3164753
141	0x3fbc297c	1.470016
142	0x3fa54608	1.2911997
143	0x3fa8a0d9	1.3174087
144	0x3fb1c3e9	1.3887912
145	0xbf9b1e8d	-1.2118698
146	0x3fb2b844	1.3962483
147	0x3cccd126	0.025002073
148	0xbd0d9f73	-0.03457589
149	0xbcc86dba	-0.024466384
150	0xbc92cc9a	-0.017919827
151	0xbc041380	-0.00806129
152	0xbc28ae18	-0.010295413
153	0xbd01cab0	-0.03168744
154	0x3ce272ae	0.027642574
155	0xbcfaf50d	-0.030634427
156	0x3d0de363	0.03464068
157	0x3cd3fbee	0.025876965
158	0xbd2004aa	-0.039066948
159	0x3c00efcc	0.007869672
160	0xbbba96b0	-0.005694233
161	0x3e115e0c	0.14196032
162	0xbd530c24	-0.05152525
163	0xbe739ba2	-0.23789838
164	0xbe0171b5	-0.12641032
165	0xbe105d5a	-0.14098111
166	0x3e965f26	0.29369467
167	0xbdfa44fc	-0.12220189
168	0xbf40f415	-0.7537244
169	0x3f526a98	0.821939
170	0x3f21aa99	0.63150936
171	0x3f3b676d	0.7320469
172	0x3f48bac3	0.78409976
173	0xbf04a88f	-0.518197
174	0x3f48a098	0.78370047
175	0xbeca3426	-0.3949291
176	0x3eb3641e	0.3503732
177	0x3ec184cb	0.37796625
178	0x3ec7e0f5	0.39038816
179	0x3ed1fcee	0.41013283
180	0xbe9ae5a9	-0.30253342
181	0x3ebda06e	0.3703646
182	0xbf452774	-0.77013326
183	0x3f81fe53	1.0155739
184	0x3f2cc430	0.6748686
185	0x3f581c65	0.84418327
186	0x3f68315b	0.9070031
187	0xbf22fc44	-0.63666177
188	0x3f4ab4e4	0.7918227
189	0x3f1ba587	0.6079945
190	0xbeaa0a14	-0.33210814
191	0xbf15c2fa	-0.58500636
192	0xbf109ab2	-0.56486046
193	0xbee1241a	-0.43972856
194	0x3f3c5ece	0.7358216
195	0xbeffbb92	-0.49947792
196	0x3d5a5f91	0.053313795
197	0x3dca02fc	0.098638505
198	0xbe0770d7	-0.13226639
199	0xbdaa6e54	-0.08321825
200	0x3bee62ec	0.007274976
201	0x3e157cc6	0.14598379
202	0xbd5aecfc	-0.053448662
203	0x3e96c1ca	0.29444724
204	0xbe65475a	-0.223905
205	0xbebaf84e	-0.36517566
206	0xbeaab869	-0.3334382
207	0xbe69d45a	-0.22834912
208	0x3ee10a70	0.43953276
209	0xbea4cc20	-0.32186985
210	0x3e82074e	0.25396198
211	0xbe017d85	-0.12645538
212	0xbe9fde1b	-0.3122414
213	0xbe711331	-0.23542477
214	0xbe055acf	-0.13022922
215	0x3eefba51	0.46821836
216	0xbe9b85f3	-0.30375633
217	0xbe9f522a	-0.31117374
218	0x3f0c1f90	0.5473566
219	0x3e8fd1f8	0.2808988
220	0x3ec81a5a	0.39082605
221	0x3ee444f2	0.4458385
222	0xbe16d315	-0.14728959
223	0x3eb88c99	0.36044767
224	0xbf2e1541	-0.6800118
225	0x3f2a5266	0.6653198
226	0x3f1af6e1	0.6053296
227	0x3f2856ca	0.6575743
228	0x3f324f88	0.69652605
229	0xbf13240b	-0.5747687
230	0x3f371f1f	0.7153186
231	0x3eec4a1e	0.46150297
232	0xbe912b22	-0.2835322
233	0xbf072787	-0.5279469
234	0xbed9f23f	-0.42567632
235	0xbeabc8ad	-0.3355154
236	0x3f0bc054	0.54590344
237	0xbebdfaa4	-0.37105286
238	0xbfd56ac0	-1.6673203
239	0x3fdd368b	1.728227
240	0x3fd1faba	1.6404641
241	0x3fde351f	1.7359961
242	0x3fda2f00	1.7045593
243	0xbfc5df05	-1.5458685
244	0x3fd3450e	1.6505449
245	0xbd74fb7a	-0.05981014
246	0x3e5b49dc	0.21414894
247	0x3dbd3734	0.09239045
248	0x3e012430	0.1261146
249	0x3df359b6	0.118823454
250	0x3c876e5b	0.016532114
251	0x3e2950e8	0.1653477
252	0x3ec814df	0.39078423
253	0xbdb33d19	-0.08751888
254	0xbed30603	-0.41215524
255	0xbec41cd7	-0.38303253

sequential/dense/MatMul f4 [7, 7]
0	0xbfcf4814	-1.6193871
1	0x3fa7383b	1.3064035
2	0x3f5bcec0	0.8586235
3	0x3fbc8609	1.4728404
4	0x3fd71425	1.6803023
5	0xbf43446a	-0.76276267
6	0x3fa1e999	1.2649413
7	0x3fa17d5f	1.2616385
8	0xbf2723cf	-0.65289015
9	0xbfae3014	-1.3608422
10	0xbffc11d4	-1.9692941
11	0xbf8164ae	-1.010885
12	0x3f7ff1e1	0.9997845
13	0xbfc20de7	-1.5160493
14	0xbf9ccd7b	-1.2250208
15	0x3fae47db	1.3615679
16	0x3fb85d67	1.4403504
17	0x3fa89f96	1.3173702
18	0x3ff2f9dc	1.8982501
19	0xbf04f23c	-0.5193212
20	0x3fb68291	1.4258596
21	0x3fb44697	1.4084042
22	0xbf6ba8a4	-0.920542
23	0xbfd4459f	-1.6583747
24	0xbfe1cede	-1.7641256
25	0xbfe54aa1	-1.79134
26	0x3f7304ac	0.94929004
27	0xbfa5ad77	-1.2943562
28	0x3f189bda	0.5961281
29	0xbc9cb431	-0.01912889
30	0xbefeaab8	-0.49739623
31	0x3ec297b1	0.38006356
32	0xbd86be1a	-0.06579228
33	0xbf095cff	-0.53657526
34	0xbe541b93	-0.20713644
35	0x4004282a	2.0649514
36	0xbf0c571d	-0.54820424
37	0xbf3a9a37	-0.72891563
38	0xbf879987	-1.0593728
39	0xc0058a85	-2.0865796
40	0x3fbf11e8	1.492734
41	0xbfb57d67	-1.4178895
42	0x3fcc7a15	1.5974756
43	0xbfb2980b	-1.395265
44	0xbfddc01d	-1.7324253
45	0xbfabb150	-1.3413486
46	0xbfc3dbdb	-1.530147
47	0x3f873868	1.0564089
48	0xbfbbf86c	-1.4685187

sequential/dense_1/MatMul f4 [2, 7]
0	0xc00d658b	-2.2093227
1	0x3f97f7ec	1.1872535
2	0xc0018b21	-2.0241168
3	0x3f8d233c	1.1026378
4	0x3d59d4d2	0.053181477
5	0x3fe23d0b	1.7674879
6	0x3fc54c36	1.5413883
7	0x3faafabe	1.335777
8	0xbfda5ed1	-1.7060186
9	0x3fd39abf	1.65316
10	0xbfd03434	-1.6265931
11	0x3e1c6fee	0.15277073
12	0xbf5f0705	-0.87120086
13	0xbfe83b2e	-1.814306
