TextClassificationOnMobile/Android/TextClassificationStep2/app/src/main/assets/model.tflite (tflite, 81036 bytes, 5 tensors)

sequential/dense/BiasAdd/ReadVariableOp/resource f4 [7]
00000000: 4752 2ebd cfb7 8d3e b922 753e 47f5 aa3d
00000010: 4ec4 cb3d 43b1 883e fb28 973e
-0.042558935 0.27679297 0.23939027 0.08347564 0.099495515 0.2669774 0.29523453

sequential/dense_1/BiasAdd/ReadVariableOp/resource f4 [2]
00000000: 17e0 df3f 19e0 dfbf
1.7490262 -1.7490264

sequential/embedding/embedding_lookup/17620 f4 [2003, 7]
00000000: e0d0 0d3e c2b5 f03d dfe8 d33e 900d e1be
00000010: 6c73 debd f917 61be c883 01be b2c4 b8bc
00000020: 79e2 d8bd ab5c 823e 6de3 c0be f312 fd3d
00000030: fb1f 02be bfbf 3f3e 6cb6 debd c52a 9cbd
00000040: 5d73 be3d 5e14 3abd 9a8d 423d 0619 b63c
00000050: dd45 973d 9cae 6dbe 6d1a 91be 4cfc 2e3e
00000060: d0e3 28be cbcf 7b3e e8ac 3b3e dcc4 4a3e
00000070: 3aa2 cd3c 9afd bc3c f76f 30bd e7ee cbbc
00000080: 79af 203d a8f4 3d3c 505d 31bd 58a5 65bc
00000090: 6653 b43c 1aef e53c bdbb 263d 1887 f63b
000000a0: 033d 3ebd 2660 94bc e9e4 59bf ad41 5abf
000000b0: 0695 463f 454e 18bf 2197 593f 7718 503f
000000c0: a264 613f 1819 6bbe 11a3 80be 87a0 a03e
000000d0: c14b 92be cb67 693e 29be 0a3e 4b56 5b3e
000000e0: 1f42 37bf 0f03 2fbf 7004 163f abd6 10bf
000000f0: 9ebb 1f3f 3792 183f 4948 223f 107d 55bf
00000100: 254e 57bf c02b 3d3f 0324 1dbf 7999 543f
00000110: 2539 383f 3026 4c3f 760a da3e 760d c33e
00000120: e8c8 dbbd 5abb 77bd 185c dabe 26cc d4be
00000130: 852b c0be 9301 373d 8984 073d 68e5 443c
00000140: 6849 48bc b26c 883c d373 16bd 06be e13c
00000150: 45c0 af3e 60ad 9a3e 6592 5b3e bd98 32be
00000160: e21d b4be 9470 a0be db83 96be 3383 3fbd
00000170: 98dd 77bc f45f 333c 0000 a438 3ab8 d63c
00000180: 5385 c7bc a74f 2a3d cd94 ddbc b0ef b93b
00000190: 8023 a8bc 60a9 2abb e0f4 00bd 0c8a 103c
000001a0: 281d 093c 2635 8b3c 99db 423d e866 123c
000001b0: 5762 323d 8004 47bc 3044 82bb 9d07 093d
000001c0: ba25 c7bc 6063 2a3b c0ed d0bc fa81 3fbd
000001d0: 3da1 1abd 531b 463d 5068 abbb e5a2 31bf
000001e0: 362d 25bf 480b 133f 366f f3be 4e59 303f
000001f0: f5d2 113f 2a79 3d3f e912 87bf 7c1f 92bf
00000200: 7989 8c3f bf1a 63bf de98 883f 88ee 883f
00000210: 691e 973f 711d 5cbe eb1b 32be 529c 243e
00000220: 39cb fcbd b4f7 3a3e b57f 223e 0d09 8d3e
00000230: 5139 473d 0038 e639 c17a 033d 2216 ff3c
00000240: 8c27 89bc 0717 bbbc c043 0cbc e8ed 23bf
00000250: fed7 3abf 3497 243f b2f6 fabe fd45 323f
00000260: 89e1 1b3f 2fc6 3d3f 567a cfbe 88dd c7be
00000270: f0db 8f3e 4d82 68be 65cc ad3e 5d5a cf3e
00000280: a7bf d23e 9146 833d 57a9 873c 4699 6d3d
00000290: 13c9 12be 5538 b7bd b74e 1cbd 4229 62bb
000002a0: 6239 bc3e db46 a33e edd9 a7bd 2005 79ba
000002b0: f340 9bbe bb9e ddbe a0fc 9dbe 7e4f f5bd
000002c0: c79a 20be 0fa4 bc3d 65d2 33be 238f 393e
000002d0: ad83 003e 0f45 073e 3953 193e d7a4 e83d
000002e0: 0b16 043c ad10 873c 40c5 b7bd c081 78be
000002f0: da79 27be 7c7b 75be 500b 47be cb6d 4c3e
00000300: 535a 58be de18 563e 692e e43d 56a0 433e
00000310: 3d26 1cbf f72c 21bf 005e f13e d75f b0be
00000320: efbf 0b3f 547b 053f fc45 1a3f dd28 27be
00000330: 410c 5dbe 2446 603e f87d 29be 184e 243e
00000340: 7051 093e 3d30 413e 432c 83bd f71a c2bc
00000350: bc55 5b3d 901a 34bd 07c4 433c 4216 8abd
00000360: 52ec ae3c 24dc 203c 43c8 dbbc ec52 f13d
00000370: 1cda 1bbe dae0 cb3c f5cf 69be 53b9 9c3c
00000380: 8aa3 cabd bd0b f1bd 18ee f43d c87c e3bd
00000390: 1521 2b3e 178d d43c 3e3f 0e3e 3d47 bbbe
000003a0: c9db b3be 925a b43e 658c 86be cf4d a83e
000003b0: 5bec c63e b269 b23e 973e 5abe e438 15be
000003c0: 1a1b 3d3e ac50 0fbe e0f0 403e 1670 1a3e
000003d0: 7bd3 0f3e c5bb 6c3e 74c9 f03d c44e 32be
000003e0: 324f d93d c4ea 22be d68c 6dbe 8fb2 33be
000003f0: 77f2 743e 49e9 383e 3cc0 ca3c 3c7b 50be
0.1384921 0.117534176 0.41388604 -0.4395566 -0.10861859 -0.21981801 -0.12647927 -0.02255473
-0.10590071 0.25461325 -0.37673512 0.1235713 -0.12707512 0.18725489 -0.10874638 -0.07625345
0.092993475 -0.04542958 0.047498323 0.022228729 0.07386372 -0.2321114 -0.28340474 0.17088431
-0.16493154 0.24590985 0.18327677 0.19801658 0.02510177 0.023070145 -0.043075528 -0.024894191
0.039229844 0.011593975 -0.04330188 -0.014016472 0.022012424 0.028068114 0.040706385 0.0075234286
-0.046444904 -0.018112253 -0.85114914 -0.85256463 0.7757114 -0.5949443 0.8499623 0.8128733
0.8804418 -0.22958791 -0.2512441 0.31372473 -0.2857342 0.227935 0.13549103 0.21419637
-0.7158527 -0.6836404 0.5860052 -0.5657756 0.62395656 0.59598106 0.6339155 -0.83393955
-0.84103614 0.7389488 -0.61383075 0.8304668 0.71962196 0.7974577 0.42586106 0.38096207
-0.10731679 -0.060481407 -0.42648387 -0.41562003 -0.37533203 0.044679236 0.03308538 0.012017585
-0.012224533 0.016653392 -0.036731552 0.02755643 0.34326378 0.302104 0.21442564 -0.17441078
-0.3517905 -0.3133589 -0.29397473 -0.04675598 -0.015128516 0.01094817 7.8201294e-05 0.026210893
-0.024355566 0.04157987 -0.027048493 0.005674325 -0.02052474 -0.0026040897 -0.03148353 0.008821975
0.008368768 0.016993117 0.047572706 0.008935668 0.043550815 -0.012147069 -0.0039754137 0.033454526
-0.024309982 0.0025999174 -0.025503993 -0.046754815 -0.037751425 0.048365902 -0.005230941 -0.6938918
-0.6452211 0.5743909 -0.47545785 0.6888627 0.5696252 0.74013007 -1.0552646 -1.1415858
1.0979453 -0.88712686 1.0671651 1.0697794 1.1806155 -0.21495606 -0.17393462 0.16075256
-0.12343449 0.18258554 0.15869029 0.27545968 0.048638646 0.00043910742 0.03209949 0.031138483
-0.01674249 -0.022838129 -0.008561075 -0.6403489 -0.7298583 0.6429322 -0.4901634 0.69638044
0.60891014 0.7413053 -0.40523022 -0.39036202 0.28097486 -0.22705956 0.33945003 0.4049863
0.41161844 0.06409944 0.01656024 0.0580075 -0.14334516 -0.08946291 -0.038161006 -0.0034509455
0.3676253 0.31889996 -0.08195863 -0.000949936 -0.3032299 -0.43285164 -0.308568 -0.119780526
-0.15684043 0.09210979 -0.17560728 0.18121009 0.1255023 0.13209938 0.14973153 0.11359566
0.008061896 0.016487444 -0.08973169 -0.24268246 -0.16355076 -0.23972887 -0.19437909 0.19963758
-0.21128206 0.20907924 0.111416645 0.19104132 -0.60995847 -0.62959236 0.4714203 -0.3444812
0.5458974 0.5214131 0.6026304 -0.16324182 -0.21586706 0.21901757 -0.1655196 0.16045415
0.13409972 0.18866058 -0.06404927 -0.023694498 0.05354856 -0.043970644 0.011948592 -0.067425266
0.02135292 0.009818111 -0.02682889 0.11783394 -0.15219921 0.024887491 -0.22833236 0.019131338
-0.09894474 -0.11769817 0.11959475 -0.111077845 0.16711839 0.025946183 0.13891312 -0.36577788
-0.3512862 0.3522535 -0.26278988 0.32871863 0.388522 0.34846264 -0.21312939 -0.14572483
0.1846737 -0.13995618 0.18841887 0.1508182 0.14045517 0.23118503 0.11757174 -0.17412859
0.106108084 -0.15909868 -0.23198256 -0.17548583 0.23920618 0.18057741 0.024749868 -0.2035951

sequential/dense/MatMul f4 [7, 7]
00000000: 8a15 103e bd00 053f 8828 fb3d 1072 003f
00000010: d072 9abe 443b 17be 0a0c 263f 04b2 b9bf
00000020: 97f6 c7bf 5e98 d13e ca03 10bf 86e5 c83f
00000030: 8c80 483f 3d2f d33f ae22 8dbf acd8 f6bf
00000040: 2fc3 b03e 043b 08bf 80ff de3f f6de c23e
00000050: 0eee a13f 5b8b c9bf ddb1 98bf 7910 4c3f
00000060: 0c74 26bf ed72 1c3f eeb8 a83f 9f35 a33f
00000070: deb0 7fbf f2b0 d8bf 1e46 503f 45e2 0fbf
00000080: 8bf0 c33f 320d 493f 454f bb3f 5a4a e1bf
00000090: 1300 53bf 042c f63e f5d9 08be 46bf dd3f
000000a0: 8e08 e43e 2417 503f 6c45 ed3f fe4f bf3f
000000b0: 00da d23e f08a 2ebf dd00 e3bf c0e2 9cbf
000000c0: b887 a6bf
0.14070717 0.5195425 0.1226359 0.50174046 -0.3016572 -0.14768702 0.6486212 -1.4507451
-1.5622128 0.4093656 -0.5625578 1.5695045 0.78321147 1.6498791 -1.1026208 -1.9284873
0.34523913 -0.5321505 1.7421722 0.3806073 1.2650774 -1.5745653 -1.192928 0.79712635
-0.65020823 0.6111286 1.3181436 1.2750739 -0.9987925 -1.6929 0.8135699 -0.56204635
1.5307783 0.7853576 1.4633566 -1.7600815 -0.8242199 0.48080456 -0.13364394 1.7323997
0.44537777 0.8128531 1.8536811 1.4946287 0.41181946 -0.6818075 -1.7734638 -1.2256699
-1.3010168

sequential/dense_1/MatMul f4 [2, 7]
00000000: c691 51bf 2b1a 80bf 2d58 bebf 4515 d4bf
00000010: e35a e4bf 7cf3 73bf e312 933f 4a40 113f
00000020: c8d0 9d3f 52e9 633f 49ac f53f 88b6 c43f
00000030: 3e36 c23f 0e20 2ebf
-0.8186306 -1.0007986 -1.4870659 -1.6568991 -1.7840236 -0.952934 1.1490139 0.5673872
1.232934 0.89027894 1.9193202 1.5368204 1.5172803 -0.6801766
