TextClassificationOnMobile/iOS/TextClassificationStep2/TextClassificationStep2/model.tflite (tflite, 82318 bytes, 5 tensors)

sequential/dense/BiasAdd/ReadVariableOp/resource f4 [7]
-0.0068152044 0.32889962 -0.010931057 0.2069562 0.34358314 0.25991473 -0.07516273
00000000: 1452 dfbb 8865 a83e 2d18 33bc 53ec 533e
00000010: 21ea af3e 8b13 853e ebee 99bd

sequential/dense_1/BiasAdd/ReadVariableOp/resource f4 [2]
0.14505352 -0.14505349
00000000: e988 143e e788 14be

sequential/embedding/embedding_lookup/23121 f4 [2003, 7]
0.017079022 -0.06991064 -0.21751547 0.037595566 -0.026968086 0.035608903 0.11283758 -0.13652185
0.07778521 -0.15636785 -0.13269272 0.09024861 -0.22279982 0.03765641 -0.07009331 -0.012789995
-0.16233177 -0.066975184 0.09123221 -0.13888171 0.080174655 0.06976406 -0.11831579 -0.45164427
0.0977298 -0.10945663 0.03574819 0.26109838 -1.0503675 0.974095 0.3722886 -1.0019664
1.0319037 -1.040367 -0.9687465 -0.123972945 0.12628137 -0.66469973 -0.15564278 0.09851954
-0.109592065 0.049452625 0.029595286 -0.014003301 -0.5875739 0.17236607 -0.19127913 0.028868346
0.28436556 -1.6474895 1.5777086 0.036426447 -1.6068038 1.6027334 -1.6982498 -1.5431982
-0.8207408 0.7863405 0.19474813 -0.8511077 0.8148338 -0.82530975 -0.7282596 -0.110616826
0.09918212 -0.025906935 -0.054286715 0.06638513 -0.15458569 -0.035587057 -0.20620124 0.17368826
-0.27153462 -0.13083342 0.13427258 -0.15604989 -0.06548387 -1.4800646 1.4343272 0.59783834
-1.4791088 1.5026286 -1.5386751 -1.3742967 0.20334817 -0.21219532 -0.7761664 0.29134575
-0.2738749 0.19574662 0.44587356 -0.9067824 0.9073445 0.23688616 -0.97764254 0.9486608
-1.02006 -0.8717066 -0.027441125 0.035465777 -0.5149269 -0.02028224 0.011421245 -0.054886706
0.067415886 0.028075483 -0.05190012 -0.3603347 0.062012788 -0.019533316 0.0058713146 0.12614219
0.06255097 -0.05083095 -0.6814324 0.080690056 -0.033695415 0.058684528 0.28127605 -0.22140524
0.20292063 -0.3029263 -0.23934722 0.1957969 -0.21112561 -0.069850884 -0.09897541 0.11277165
-0.32678947 -0.13108669 0.100847535 -0.108764835 0.0013018341 -0.88223875 0.8759166 -0.22904398
-0.8807129 0.86265475 -0.8883712 -0.62209284 -0.60489714 0.56792146 0.08857349 -0.5748219
0.5597993 -0.5986186 -0.49622402 -0.516305 0.47293663 -0.2566197 -0.49814856 0.48751947
-0.47074124 -0.32264322 0.31858736 -0.3309507 -1.0441266 0.2951072 -0.38047674 0.33699673
0.4912736 0.07139029 -0.05401047 -0.3605618 0.13055353 -0.11890187 0.109284654 0.19227147
-1.2568898 1.2473681 -0.16305926 -1.2281841 1.2482662 -1.3169119 -1.1785301 -0.058676276
-0.017377662 -0.4763767 -0.07318016 0.030458886 -0.05738852 0.14054699 0.3543026 -0.39826497
-0.46672133 0.44403192 -0.37607846 0.3946924 0.44513607 0.00023254941 -0.010841369 -0.2898039
-0.0034927975 -0.00560091 -0.05301133 0.046711784 -0.036506094 0.02855595 -0.3716987 0.016923424
0.038669754 -0.04620462 0.1085871 -0.8439068 0.8101846 -0.22035468 -0.7910216 0.77955794
-0.83288556 -0.6643616 0.1917396 -0.14618371 -0.7411991 0.17189813 -0.15394278 0.11072303
0.35779914 -0.3333099 0.26965815 -0.21337442 -0.2850352 0.32884493 -0.2625208 -0.17987354
-0.37686875 0.39077228 -0.5262842 -0.36031267 0.30373022 -0.34383214 -0.16324838 -0.6986296
0.6323869 -0.4125318 -0.6514982 0.6786874 -0.69342405 -0.43177077 0.48078054 -0.4207429
-0.95025593 0.47347787 -0.5332567 0.5050146 0.66921276 0.2229696 -0.209063 -0.45532468
0.23947446 -0.26187882 0.16647425 0.2705129 0.3175213 -0.28549117 -0.58066636 0.28985304
00000000: 4ee9 8b3c 4f2d 8fbd 60bc 5ebe cffd 193d
00000010: 2dec dcbc a4da 113d 6417 e73d 62cc 0bbe
00000020: da4d 9f3d e51e 20be 9ae0 07be 43d4 b83d
00000030: a325 64be 9c3d 1a3d 158d 8fbd 218d 51bc
00000040: 4d3a 26be 492a 89bd f4d7 ba3d 0237 0ebe
00000050: 9c32 a43d 76e0 8e3d 8d4f f2bd eb3d e7be
00000060: 9026 c83d cc2a e0bd b26c 123d b0ae 853e
00000070: 7172 86bf 4a5e 793f 9d9c be3e 6f40 80bf
00000080: 6c15 843f bf2a 85bf c5ff 77bf 87e5 fdbd
00000090: e74f 013e c329 2abf d260 1fbe 9dc4 c93d
000000a0: ce71 e0bd d68e 4a3d d071 f23c 1a6e 65bc
000000b0: 3e6b 16bf bb80 303e adde 43be 4f7d ec3c
000000c0: 5d98 913e f0e0 d2bf 5bf2 c93f e633 153d
000000d0: bfab cdbf 5e26 cd3f 4060 d9bf 8587 c5bf
000000e0: 121c 52bf 9c4d 493f 0e6c 473e 32e2 59bf
000000f0: f398 503f 8047 53bf 396f 3abf 138b e2bd
00000100: ff1f cb3d c83a d4bc bf5b 5ebd edf4 873d
00000110: b64b 1ebe bcc3 11bd 6b26 53be 56db 313e
00000120: 9606 8bbe 32f9 05be c07e 093e 8bcb 1fbe
00000130: 681c 86bd c272 bdbf 0998 b73f ef0b 193f
00000140: 7053 bdbf 2256 c03f 4ef3 c4bf f4e8 afbf
00000150: 813a 503e bb49 59be d7b2 46bf 452b 953e
00000160: 5539 8cbe cd71 483e 8a49 e43e e422 68bf
00000170: bb47 683f 4992 723e c846 7abf 6fdb 723f
00000180: 5391 82bf 2a28 5fbf 36cc e0bc 9044 113d
00000190: 40d2 03bf f126 a6bc 2c20 3b3c e2d0 60bd
000001a0: 5711 8a3d 8efe e53c 3895 54bd ca7d b8be
000001b0: 1f01 7e3d 5504 a0bc 2864 c03b 6b2b 013e
000001c0: b91a 803d 1d34 50bd 5b72 2ebf d440 a53d
000001d0: 3404 0abd 305f 703d 6a03 903e 0eb8 62be
000001e0: 6dca 4f3e 2819 9bbe 7017 75be fc7e 483e
000001f0: 5031 58be fb0d 8fbd 9fb3 cabd d3f4 e63d
00000200: f350 a7be 973b 06be 2789 ce3d 19c0 debd
00000210: 4ea2 aa3a 66da 61bf 123c 603f 818a 6abe
00000220: 6776 61bf f1d6 5c3f 4c6c 63bf 7a41 1fbf
00000230: 8ada 1abf 4d63 113f 0566 b53d 8727 13bf
00000240: 024f 0f3f 123f 19bf 1311 febe 912c 04bf
00000250: c024 f23e a863 83be 540d ffbe 279c f93e
00000260: ff04 f1be 7e31 a5be e21d a33e 5f72 a9be
00000270: f1a5 85bf 4a18 973e d9cd c2be d68a ac3e
00000280: 3788 fb3e 1335 923d 153a 5dbd 8e9b b8be
00000290: d3af 053e d382 f3bd a2d0 df3d d0e2 443e
000002a0: c4e1 a0bf c2a9 9f3f 02f9 26be 2335 9dbf
000002b0: 30c7 9f3f 9290 a8bf 13da 96bf 8956 70bd
000002c0: 995b 8ebc a6e7 f3be 7bdf 95bd ea84 f93c
000002d0: 3a10 6bbd 8deb 0f3e 2667 b53e 63e9 cbbe
000002e0: 19f6 eebe 2758 e33e 5b8d c0be 1f15 ca3e
000002f0: e0e8 e33e 82d8 7339 ff9f 31bc 2d61 94be
00000300: 6be7 64bb d787 b7bb 6922 59bd db54 3f3d
00000310: 6a87 15bd 2bee e93c 4b4f bebe fea2 8a3c
00000320: 2d64 1e3d 0e41 3dbd ea62 de3d 470a 58bf
00000330: 4268 4f3f a8a4 61be 6480 4abf 1c91 473f
00000340: fd37 55bf 9a13 2abf 6357 443e 2fb1 15be
00000350: 39bf 3dbf 1006 303e 2da3 1dbe c2c2 e23d
00000360: 7331 b73e 98a7 aabe a210 8a3e d37e 5abe
00000370: 22f0 91be 5d5e a83e 2069 86be c530 38be
00000380: f1f4 c0be 4e13 c83e 90ba 06bf e77a b8be
00000390: 8782 9b3e c40a b0be 952a 27be 64d9 32bf
000003a0: 1ce4 213f 5e37 d3be 96c8 26bf 75be 2d3f
000003b0: 3d84 31bf 0f11 ddbe de28 f63e 9d6b d7be
000003c0: f943 73bf b16b f23e 8383 08bf a348 013f
000003d0: 8751 2b3f 2552 643e 9c14 56be 5120 e9be
000003e0: cb38 753e fb14 86be 3a78 2a3e ab80 8a3e
000003f0: 2792 a23e e62b 92be 8da6 14bf 9e67 943e

sequential/dense/MatMul f4 [7, 7]
2.7207458 -1.4599394 -0.5618324 2.8681145 -3.195774 2.7756653 1.1052759 -2.7027905
1.492682 0.08806896 -2.5452335 3.2043414 -2.3939934 -0.676439 2.2840493 -0.83925027
-0.86044246 2.7969809 -3.519263 2.498618 1.2565045 2.1717458 -1.450121 -0.33522034
2.666773 -3.0021436 2.6835973 1.2106513 -2.197258 1.1561388 0.13167593 -3.0979288
3.1734698 -2.696668 -0.6085344 -2.7216895 1.4460462 -0.33624953 -2.862039 2.5014236
-2.7194946 -0.97821337 -0.5330408 0.01402685 0.024571935 -0.24184126 -0.28683004 0.32978225
0.06304659
00000000: b320 2e40 4bdf babf 40d4 0fbf 308f 3740
00000010: 9087 4cc0 80a4 3140 ae79 8d3f 85fa 2cc0
00000020: 3410 bf3f 805d b43d 1be5 22c0 ee13 4d40
00000030: 3037 19c0 1b2b 2dbf dd2d 1240 1bd9 56bf
00000040: f545 5cbf bc01 3340 9b3b 61c0 5be9 1f40
00000050: 24d5 a03f e2fd 0a40 919d b9bf 00a2 abbe
00000060: 69ac 2a40 1f23 40c0 0fc0 2b40 9ff6 9a3f
00000070: e09f 0cc0 5bfc 933f 0ed6 063e 7744 46c0
00000080: 211a 4b40 3596 2cc0 e9c8 1bbf 2930 2ec0
00000090: 0b18 b93f e628 acbe a62b 37c0 5317 2040
000000a0: 330c 2ec0 316c 7abf 5d75 08bf e0d0 653c
000000b0: 154b c93c 3ca5 77be 63db 92be 38d9 a83e
000000c0: 921e 813d

sequential/dense_1/MatMul f4 [2, 7]
1.8338453 -2.149014 1.2049167 1.5304027 -2.3235261 -2.3418686 0.3292277 -1.6935153
1.3059899 -2.0471 -0.95890284 1.2427202 0.9929009 0.22320624
00000000: 71bb ea3f 7289 09c0 b63a 9a3f 3ce4 c33f
00000010: a7b4 14c0 2de1 15c0 8890 a83e 1cc5 d8bf
00000020: ad2a a73f b003 03c0 a87a 75bf 7511 9f3f
00000030: c12e 7e3f 2d90 643e
